…
eans that we only care about how close the answer was to the actual answer \nmodel.compile(optimizer='adam',\n              loss=tf.keras.losses.SparseCategoricalCrossentropy(from_logits=True),\n              metrics=['accuracy'])\nmodel.summary()","metadata":{"id":"83YcVBTMNkE0"},"output":{"0":{"name":"stdout","output_type":"stream","text":"Model: \"sequential_10\"\n_________________________________________________________________\nLayer (type)                 Output Shape              Param #   \n=================================================================\nconv2d_30 (Conv2D)           (None, 26, 26, 28)        280       \n_________________________________________________________________\nmax_pooling2d_20 (MaxPooling (None, 13, 13, 28)        0         \n_________________________________________________________________\nconv2d_31 (Conv2D)           (None, 11, 11, 56)        14168     \n_________________________________________________________________\nmax_pooling2d_21 (MaxPooling (None, 5, 5, 56)          0         \n_________________________________________________________________\nconv2d_32 (Conv2D)           (None, 3, 3, 56)          28280     \n_________________________________________________________________\nflatten_10 (Flatten)         (None, 504)               0         \n_________________________________________________________________\ndense_20 (Dense)             (None, 64)                32320     \n_________________________________________________________________\ndense_21 (Dense)             (None, 10)                650       \n=================================================================\nTotal params: 75,698\nTrainable params: 75,698\nNon-trainable params: 0\n_________________________________________________________________\n"}},"pos":17,"state":"done","type":"cell"}
{"cell_type":"code","exec_count":43,"id":"1011fc","input":"model.fit(train_images, train_labels, epochs=num_epochs)","metadata":{"colab":{"ba
…
