…
racy means that we only care about how close the answer was to the actual answer \nmodel.compile(optimizer='adam',\n              loss=tf.keras.losses.SparseCategoricalCrossentropy(from_logits=True),\n              metrics=['accuracy'])\nmodel.summary()","kernel":"cv_env","metadata":{"id":"83YcVBTMNkE0"},"output":{"0":{"name":"stdout","text":"Model: \"sequential_1\"\n_________________________________________________________________\nLayer (type)                 Output Shape              Param #   \n=================================================================\nconv2d_3 (Conv2D)            (None, 26, 26, 28)        280       \n_________________________________________________________________\nmax_pooling2d_2 (MaxPooling2 (None, 13, 13, 28)        0         \n_________________________________________________________________\nconv2d_4 (Conv2D)            (None, 11, 11, 56)        14168     \n_________________________________________________________________\nmax_pooling2d_3 (MaxPooling2 (None, 5, 5, 56)          0         \n_________________________________________________________________\nconv2d_5 (Conv2D)            (None, 3, 3, 56)          28280     \n_________________________________________________________________\nflatten_1 (Flatten)          (None, 504)               0         \n_________________________________________________________________\ndense_2 (Dense)              (None, 64)                32320     \n_________________________________________________________________\ndense_3 (Dense)              (None, 10)                650       \n=================================================================\nTotal params: 75,698\nTrainable params: 75,698\nNon-trainable params: 0\n_________________________________________________________________\n"}},"pos":17,"start":1655238380417,"state":"done","type":"cell"}
{"cell_type":"code","end":1655238577093,"exec_count":25,"id":"0920d0","input":"model.fit(train_images, train_labels, ep
…
