…
AVX2 AVX512F FMA\nTo enable them in other operations, rebuild TensorFlow with the appropriate compiler flags.\n2022-06-14 20:28:36.237646: I tensorflow/core/common_runtime/process_util.cc:146] Creating new thread pool with default inter op setting: 2. Tune using inter_op_parallelism_threads for best performance.\n"},"1":{"name":"stdout","text":"Model: \"sequential\"\n_________________________________________________________________\nLayer (type)                 Output Shape              Param #   \n=================================================================\nconv2d (Conv2D)              (None, 26, 26, 28)        280       \n_________________________________________________________________\nmax_pooling2d (MaxPooling2D) (None, 13, 13, 28)        0         \n_________________________________________________________________\nconv2d_1 (Conv2D)            (None, 11, 11, 56)        14168     \n_________________________________________________________________\nmax_pooling2d_1 (MaxPooling2 (None, 5, 5, 56)          0         \n_________________________________________________________________\nconv2d_2 (Conv2D)            (None, 3, 3, 56)          28280     \n_________________________________________________________________\nflatten (Flatten)            (None, 504)               0         \n_________________________________________________________________\ndense (Dense)                (None, 64)                32320     \n_________________________________________________________________\ndense_1 (Dense)              (None, 10)                650       \n=================================================================\nTotal params: 75,698\nTrainable params: 75,698\nNon-trainable params: 0\n_________________________________________________________________\n"}},"pos":17,"start":1655238516241,"state":"done","type":"cell"}
{"cell_type":"code","end":1655238791009,"exec_count":16,"id":"56ed6f","input":"model.fit(train_images, train_labels, ep
…
